…
vious Chapter except the context length is significantly shorter. Larger Context length implies shorter memory requirements.\n\n::: {#195cd558 .cell execution_count=1}\n``` {.python .cell-code}\nimport torch\nfrom gpt import GPTModel\n\nGPT_CONFIG_124M = {\n    \"vocab_size\":50257,\n    \"context_length\":256,\n    \"emb_dim\": 768,\n    \"n_heads\": 12,\n    \"n_layers\": 12,\n    \"drop_rate\": 0.1,\n    \"qkv_bias\": False\n}\ntorch.manual_seed(123)\nmodel = GPTModel(GPT_CONFIG_124M)\nmodel.eval()\n```\n\n::: {.cell-output .cell-output-display execution_count=3}\n```\nGPTModel(\n  (tok_emb): Embedding(50257, 768)\n  (pos_emb): Embedding(256, 768)\n  (drop_emb): Dropout(p=0.1, inplace=False)\n  (trf_blocks): Sequential(\n    (0): TransformerBlock(\n      (att): MultiHeadAttention(\n        (W_query): Linear(in_features=768, out_features=768, bias=False)\n        (W_key): Linear(in_features=768, out_features=768, bias=False)\n        (W_value): Linear(in_features=768, out_features=768, bias=False)\n        (out_proj): Linear(in_features=768, out_features=768, bias=True)\n        (dropout): Dropout(p=0.1, inplace=False)\n      )\n      (ff): FeedForward(\n        (layers): Sequential(\n          (0): Linear(in_features=768, out_features=3072, bias=True)\n          (1): GELU()\n          (2): Linear(in_features=3072, out_features=768, bias=True)\n        )\n      )\n      (norm1): LayerNorm()\n      (norm2): LayerNorm()\n      (drop_shortcut): Dropout(p=0.1, inplace=False)\n    )\n    (1): TransformerBlock(\n      (att): MultiHeadAttention(\n        (W_query): Linear(in_features=768, out_features=768, bias=False)\n        (W_key): Linear(in_features=768, out_features=768, bias=False)\n        (W_value): Linear(in_features=768, out_features=768, bias=False)\n        (out_proj): Linear(in_features=768, out_features=768, bias=True)\n        (dropout): Dropout(p=0.1, inplace=False)\n      )\n      (ff): FeedForward(\n        (layers): Sequential(\n          (0): Linear(in_features=768, out_features=3072, bias=True)\n          (1): GELU()\n          (2): Linear(in_features=3072, out_features=768, bias=True)\n        )\n      )\n      (norm1): LayerNorm()\n      (norm2): LayerNorm()\n      (drop_shortcut): Dropout(p=0.1, inplace=False)\n    )\n    (2): TransformerBlock(\n      (att): MultiHeadAttention(\n        (W_query): Linear(in_features=768, out_features=768, bias=False)\n        (W_key): Linear(in_features=768, out_features=768, bias=False)\n        (W_value): Linear(in_features=768, out_features=768, bias=False)\n        (out_proj): Linear(in_features=768, out_features=768, bias=True)\n        (dropout): Dropout(p=0.1, inplace=False)\n      )\n      (ff): FeedForward(\n        (layers): Sequential(\n          (0): Linear(in_features=768, out_features=3072, bias=True)\n          (1): GELU()\n          (2): Linear(in_features=3072, out_features=768, bias=True)\n        )\n      )\n      (norm1): LayerNorm()\n      (norm2): LayerNorm()\n      (drop_shortcut): Dropout(p=0.1, inplace=False)\n    )\n    (3): TransformerBlock(\n      (att): MultiHeadAttention(\n        (W_query): Linear(in_features=768, out_features=768, bias=False)\n        (W_key): Linear(in_features=768, out_features=768, bias=False)\n        (W_value): Linear(in_features=768, out_features=768, bias=False)\n        (out_proj): Linear(in_features=768, out_features=768, bias=True)\n        (dropout): Dropout(p=0.1, inplace=False)\n      )\n      (ff): FeedForward(\n        (layers): Sequential(\n          (0): Linear(in_features=768, out_features=3072, bias=True)\n          (1): GELU()\n          (2): Linear(in_features=3072, out_features=768, bias=True)\n        )\n      )\n      (norm1): LayerNorm()\n      (norm2): LayerNorm()\n      (drop_shortcut): Dropout(p=0.1, inplace=False)\n    )\n    (4): TransformerBlock(\n      (att): MultiHeadAttention(\n        (W_query): Linear(in_features=768, out_features=768, bias=False)\n        (W_key): Linear(in_features=768, out_features=768, bias=False)\n        (W_value): Linear(in_features=768, out_features=768, bias=False)\n        (out_proj): Linear(in_features=768, out_features=768, bias=True)\n        (dropout): Dropout(p=0.1, inplace=False)\n      )\n      (ff): FeedForward(\n        (layers): Sequential(\n          (0): Linear(in_features=768, out_features=3072, bias=True)\n          (1): GELU()\n          (2): Linear(in_features=3072, out_features=768, bias=True)\n        )\n      )\n      (norm1): LayerNorm()\n      (norm2): LayerNorm()\n      (drop_shortcut): Dropout(p=0.1, inplace=False)\n    )\n    (5): TransformerBlock(\n      (att): MultiHeadAttention(\n        (W_query): Linear(in_features=768, out_features=768, bias=False)\n        (W_key): Linear(in_features=768, out_features=768, bias=False)\n        (W_value): Linear(in_features=768, out_features=768, bias=False)\n        (out_proj): Linear(in_features=768, out_features=768, bias=True)\n        (dropout): Dropout(p=0.1, inplace=False)\n      )\n      (ff): FeedForward(\n        (layers): Sequential(\n          (0): Linear(in_features=768, out_features=3072, bias=True)\n          (1): GELU()\n          (2): Linear(in_features=3072, out_features=768, bias=True)\n        )\n      )\n      (norm1): LayerNorm()\n      (norm2): LayerNorm()\n      (drop_shortcut): Dropout(p=0.1, inplace=False)\n    )\n    (6): TransformerBlock(\n      (att): MultiHeadAttention(\n        (W_query): Linear(in_features=768, out_features=768, bias=False)\n        (W_key): Linear(in_features=768, out_features=768, bias=False)\n        (W_value): Linear(in_features=768, out_features=768, bias=False)\n        (out_proj): Linear(in_features=768, out_features=768, bias=True)\n        (dropout): Dropout(p=0.1, inplace=False)\n      )\n      (ff): FeedForward(\n        (layers): Sequential(\n          (0): Linear(in_features=768, out_features=3072, bias=True)\n          (1): GELU()\n          (2): Linear(in_features=3072, out_features=768, bias=True)\n        )\n      )\n      (norm1): LayerNorm()\n      (norm2): LayerNorm()\n      (drop_shortcut): Dropout(p=0.1, inplace=False)\n    )\n    (7): TransformerBlock(\n      (att): MultiHeadAttention(\n        (W_query): Linear(in_features=768, out_features=768, bias=False)\n        (W_key): Linear(in_features=768, out_features=768, bias=False)\n        (W_value): Linear(in_features=768, out_features=768, bias=False)\n        (out_proj): Linear(in_features=768, out_features=768, bias=True)\n        (dropout): Dropout(p=0.1, inplace=False)\n      )\n      (ff): FeedForward(\n        (layers): Sequential(\n          (0): Linear(in_features=768, out_features=3072, bias=True)\n          (1): GELU()\n          (2): Linear(in_features=3072, out_features=768, bias=True)\n        )\n      )\n      (norm1): LayerNorm()\n      (norm2): LayerNorm()\n      (drop_shortcut): Dropout(p=0.1, inplace=False)\n    )\n    (8): TransformerBlock(\n      (att): MultiHeadAttention(\n        (W_query): Linear(in_features=768, out_features=768, bias=False)\n        (W_key): Linear(in_features=768, out_features=768, bias=False)\n        (W_value): Linear(in_features=768, out_features=768, bias=False)\n        (out_proj): Linear(in_features=768, out_features=768, bias=True)\n        (dropout): Dropout(p=0.1, inplace=False)\n      )\n      (ff): FeedForward(\n        (layers): Sequential(\n          (0): Linear(in_features=768, out_features=3072, bias=True)\n          (1): GELU()\n          (2): Linear(in_features=3072, out_features=768, bias=True)\n        )\n      )\n      (norm1): LayerNorm()\n      (norm2): LayerNorm()\n      (drop_shortcut): Dropout(p=0.1, inplace=False)\n    )\n    (9): TransformerBlock(\n      (att): MultiHeadAttention(\n        (W_query): Linear(in_features=768, out_features=768, bias=False)\n        (W_key): Linear(in_features=768, out_features=768, bias=False)\n        (W_value): Linear(in_features=768, out_features=768, bias=False)\n        (out_proj): Linear(in_features=768, out_features=768, bias=True)\n        (dropout): Dropout(p=0.1, inplace=False)\n      )\n      (ff): FeedForward(\n        (layers): Sequential(\n          (0): Linear(in_features=768, out_features=3072, bias=True)\n          (1): GELU()\n          (2): Linear(in_features=3072, out_features=768, bias=True)\n        )\n      )\n      (norm1): LayerNorm()\n      (norm2): LayerNorm()\n      (drop_shortcut): Dropout(p=0.1, inplace=False)\n    )\n    (10): TransformerBlock(\n      (att): MultiHeadAttention(\n        (W_query): Linear(in_features=768, out_features=768, bias=False)\n        (W_key): Linear(in_features=768, out_features=768, bias=False)\n        (W_value): Linear(in_features=768, out_features=768, bias=False)\n        (out_proj): Linear(in_features=768, out_features=768, bias=True)\n        (dropout): Dropout(p=0.1, inplace=False)\n      )\n      (ff): FeedForward(\n        (layers): Sequential(\n          (0): Linear(in_features=768, out_features=3072, bias=True)\n          (1): GELU()\n          (2): Linear(in_features=3072, out_features=768, bias=True)\n        )\n      )\n      (norm1): LayerNorm()\n      (norm2): LayerNorm()\n      (drop_shortcut): Dropout(p=0.1, inplace=False)\n    )\n    (11): TransformerBlock(\n      (att): MultiHeadAttention(\n        (W_query): Linear(in_features=768, out_features=768, bias=False)\n        (W_key): Linear(in_features=768, out_features=768, bias=False)\n        (W_value): Linear(in_features=768, out_features=768, bias=False)\n        (out_proj): Linear(in_features=768, out_features=768, bias=True)\n        (dropout): Dropout(p=0.1, inplace=False)\n      )\n      (ff): FeedForward(\n        (layers): Sequential(\n          (0): Linear(in_features=768, out_features=3072, bias=True)\n          (1): GELU()\n          (2): Linear(in_features=3072, out_features=768, bias=True)\n        )\n      )\n      (norm1): LayerNorm()\n      (norm2): LayerNorm()\n      (drop_shortcut): Dropout(p=0.1, inplace=False)\n    )\n  )\n  (final_norm): LayerNorm()\n  (out_head): Linear(in_features=768, out_features=50257, bias=False)\n)\n```\n:::\n:::\n\n\n## Defining training & Validation Sets\n\nWe start by loading the data we had downloaded in Chapter 02.\n\n::: {#5a121291 .cell execution_count=2}\n``` {.python .cell-code}\nimport tiktoken\ntokenizer = tiktoken.get_encoding(\"gpt2\")\n\nfile_path = \"the-verdict.txt\"\nwith open(file_path,\"r\",encoding=\"utf-8\") as file:\n 
…
 in one go.\n\nWe finally have tokens being generated from the models. We can proceed to saving these model weights.\n\n# Loading and saving model weights\n\nWe have trained a pretty bad model which is functional. We can save and reload the model  with the following:\n\n::: {#e1177ce3 .cell execution_count=22}\n``` {.python .cell-code}\ntorch.save(model.state_dict(),\"model.pth\")\n\nmodel = GPTModel(GPT_CONFIG_124M)\nmodel.load_state_dict(torch.load(\"model.pth\", map_location=device))\nmodel.eval()\n```\n\n::: {.cell-output .cell-output-display execution_count=24}\n```\nGPTModel(\n  (tok_emb): Embedding(50257, 768)\n  (pos_emb): Embedding(256, 768)\n  (drop_emb): Dropout(p=0.1, inplace=False)\n  (trf_blocks): Sequential(\n    (0): TransformerBlock(\n      (att): MultiHeadAttention(\n        (W_query): Linear(in_features=768, out_features=768, bias=False)\n        (W_key): Linear(in_features=768, out_features=768, bias=False)\n        (W_value): Linear(in_features=768, out_features=768, bias=False)\n        (out_proj): Linear(in_features=768, out_features=768, bias=True)\n        (dropout): Dropout(p=0.1, inplace=False)\n      )\n      (ff): FeedForward(\n        (layers): Sequential(\n          (0): Linear(in_features=768, out_features=3072, bias=True)\n          (1): GELU()\n          (2): Linear(in_features=3072, out_features=768, bias=True)\n        )\n      )\n      (norm1): LayerNorm()\n      (norm2): LayerNorm()\n      (drop_shortcut): Dropout(p=0.1, inplace=False)\n    )\n    (1): TransformerBlock(\n      (att): MultiHeadAttention(\n        (W_query): Linear(in_features=768, out_features=768, bias=False)\n        (W_key): Linear(in_features=768, out_features=768, bias=False)\n        (W_value): Linear(in_features=768, out_features=768, bias=False)\n        (out_proj): Linear(in_features=768, out_features=768, bias=True)\n        (dropout): Dropout(p=0.1, inplace=False)\n      )\n      (ff): FeedForward(\n        (layers): Sequential(\n          (0): Linear(in_features=768, out_features=3072, bias=True)\n          (1): GELU()\n          (2): Linear(in_features=3072, out_features=768, bias=True)\n        )\n      )\n      (norm1): LayerNorm()\n      (norm2): LayerNorm()\n      (drop_shortcut): Dropout(p=0.1, inplace=False)\n    )\n    (2): TransformerBlock(\n      (att): MultiHeadAttention(\n        (W_query): Linear(in_features=768, out_features=768, bias=False)\n        (W_key): Linear(in_features=768, out_features=768, bias=False)\n        (W_value): Linear(in_features=768, out_features=768, bias=False)\n        (out_proj): Linear(in_features=768, out_features=768, bias=True)\n        (dropout): Dropout(p=0.1, inplace=False)\n      )\n      (ff): FeedForward(\n        (layers): Sequential(\n          (0): Linear(in_features=768, out_features=3072, bias=True)\n          (1): GELU()\n          (2): Linear(in_features=3072, out_features=768, bias=True)\n        )\n      )\n      (norm1): LayerNorm()\n      (norm2): LayerNorm()\n      (drop_shortcut): Dropout(p=0.1, inplace=False)\n    )\n    (3): TransformerBlock(\n      (att): MultiHeadAttention(\n        (W_query): Linear(in_features=768, out_features=768, bias=False)\n        (W_key): Linear(in_features=768, out_features=768, bias=False)\n        (W_value): Linear(in_features=768, out_features=768, bias=False)\n        (out_proj): Linear(in_features=768, out_features=768, bias=True)\n        (dropout): Dropout(p=0.1, inplace=False)\n      )\n      (ff): FeedForward(\n        (layers): Sequential(\n          (0): Linear(in_features=768, out_features=3072, bias=True)\n          (1): GELU()\n          (2): Linear(in_features=3072, out_features=768, bias=True)\n        )\n      )\n      (norm1): LayerNorm()\n      (norm2): LayerNorm()\n      (drop_shortcut): Dropout(p=0.1, inplace=False)\n    )\n    (4): TransformerBlock(\n      (att): MultiHeadAttention(\n        (W_query): Linear(in_features=768, out_features=768, bias=False)\n        (W_key): Linear(in_features=768, out_features=768, bias=False)\n        (W_value): Linear(in_features=768, out_features=768, bias=False)\n        (out_proj): Linear(in_features=768, out_features=768, bias=True)\n        (dropout): Dropout(p=0.1, inplace=False)\n      )\n      (ff): FeedForward(\n        (layers): Sequential(\n          (0): Linear(in_features=768, out_features=3072, bias=True)\n          (1): GELU()\n          (2): Linear(in_features=3072, out_features=768, bias=True)\n        )\n      )\n      (norm1): LayerNorm()\n      (norm2): LayerNorm()\n      (drop_shortcut): Dropout(p=0.1, inplace=False)\n    )\n    (5): TransformerBlock(\n      (att): MultiHeadAttention(\n        (W_query): Linear(in_features=768, out_features=768, bias=False)\n        (W_key): Linear(in_features=768, out_features=768, bias=False)\n        (W_value): Linear(in_features=768, out_features=768, bias=False)\n        (out_proj): Linear(in_features=768, out_features=768, bias=True)\n        (dropout): Dropout(p=0.1, inplace=False)\n      )\n      (ff): FeedForward(\n        (layers): Sequential(\n          (0): Linear(in_features=768, out_features=3072, bias=True)\n          (1): GELU()\n          (2): Linear(in_features=3072, out_features=768, bias=True)\n        )\n      )\n      (norm1): LayerNorm()\n      (norm2): LayerNorm()\n      (drop_shortcut): Dropout(p=0.1, inplace=False)\n    )\n    (6): TransformerBlock(\n      (att): MultiHeadAttention(\n        (W_query): Linear(in_features=768, out_features=768, bias=False)\n        (W_key): Linear(in_features=768, out_features=768, bias=False)\n        (W_value): Linear(in_features=768, out_features=768, bias=False)\n        (out_proj): Linear(in_features=768, out_features=768, bias=True)\n        (dropout): Dropout(p=0.1, inplace=False)\n      )\n      (ff): FeedForward(\n        (layers): Sequential(\n          (0): Linear(in_features=768, out_features=3072, bias=True)\n          (1): GELU()\n          (2): Linear(in_features=3072, out_features=768, bias=True)\n        )\n      )\n      (norm1): LayerNorm()\n      (norm2): LayerNorm()\n      (drop_shortcut): Dropout(p=0.1, inplace=False)\n    )\n    (7): TransformerBlock(\n      (att): MultiHeadAttention(\n        (W_query): Linear(in_features=768, out_features=768, bias=False)\n        (W_key): Linear(in_features=768, out_features=768, bias=False)\n        (W_value): Linear(in_features=768, out_features=768, bias=False)\n        (out_proj): Linear(in_features=768, out_features=768, bias=True)\n        (dropout): Dropout(p=0.1, inplace=False)\n      )\n      (ff): FeedForward(\n        (layers): Sequential(\n          (0): Linear(in_features=768, out_features=3072, bias=True)\n          (1): GELU()\n          (2): Linear(in_features=3072, out_features=768, bias=True)\n        )\n      )\n      (norm1): LayerNorm()\n      (norm2): LayerNorm()\n      (drop_shortcut): Dropout(p=0.1, inplace=False)\n    )\n    (8): TransformerBlock(\n      (att): MultiHeadAttention(\n        (W_query): Linear(in_features=768, out_features=768, bias=False)\n        (W_key): Linear(in_features=768, out_features=768, bias=False)\n        (W_value): Linear(in_features=768, out_features=768, bias=False)\n        (out_proj): Linear(in_features=768, out_features=768, bias=True)\n        (dropout): Dropout(p=0.1, inplace=False)\n      )\n      (ff): FeedForward(\n        (layers): Sequential(\n          (0): Linear(in_features=768, out_features=3072, bias=True)\n          (1): GELU()\n          (2): Linear(in_features=3072, out_features=768, bias=True)\n        )\n      )\n      (norm1): LayerNorm()\n      (norm2): LayerNorm()\n      (drop_shortcut): Dropout(p=0.1, inplace=False)\n    )\n    (9): TransformerBlock(\n      (att): MultiHeadAttention(\n        (W_query): Linear(in_features=768, out_features=768, bias=False)\n        (W_key): Linear(in_features=768, out_features=768, bias=False)\n        (W_value): Linear(in_features=768, out_features=768, bias=False)\n        (out_proj): Linear(in_features=768, out_features=768, bias=True)\n        (dropout): Dropout(p=0.1, inplace=False)\n      )\n      (ff): FeedForward(\n        (layers): Sequential(\n          (0): Linear(in_features=768, out_features=3072, bias=True)\n          (1): GELU()\n          (2): Linear(in_features=3072, out_features=768, bias=True)\n        )\n      )\n      (norm1): LayerNorm()\n      (norm2): LayerNorm()\n      (drop_shortcut): Dropout(p=0.1, inplace=False)\n    )\n    (10): TransformerBlock(\n      (att): MultiHeadAttention(\n        (W_query): Linear(in_features=768, out_features=768, bias=False)\n        (W_key): Linear(in_features=768, out_features=768, bias=False)\n        (W_value): Linear(in_features=768, out_features=768, bias=False)\n        (out_proj): Linear(in_features=768, out_features=768, bias=True)\n        (dropout): Dropout(p=0.1, inplace=False)\n      )\n      (ff): FeedForward(\n        (layers): Sequential(\n          (0): Linear(in_features=768, out_features=3072, bias=True)\n          (1): GELU()\n          (2): Linear(in_features=3072, out_features=768, bias=True)\n        )\n      )\n      (norm1): LayerNorm()\n      (norm2): LayerNorm()\n      (drop_shortcut): Dropout(p=0.1, inplace=False)\n    )\n    (11): TransformerBlock(\n      (att): MultiHeadAttention(\n        (W_query): Linear(in_features=768, out_features=768, bias=False)\n        (W_key): Linear(in_features=768, out_features=768, bias=False)\n        (W_value): Linear(in_features=768, out_features=768, bias=False)\n        (out_proj): Linear(in_features=768, out_features=768, bias=True)\n        (dropout): Dropout(p=0.1, inplace=False)\n      )\n      (ff): FeedForward(\n        (layers): Sequential(\n          (0): Linear(in_features=768, out_features=3072, bias=True)\n          (1): GELU()\n          (2): Linear(in_features=3072, out_features=768, bias=True)\n        )\n      )\n      (norm1): LayerNorm()\n      (norm2): LayerNorm()\n      (drop_shortcut): Dropout(p=0.1, inplace=False)\n    )\n  )\n  (final_norm): LayerNorm()\n  (out_head): Linear(in_features=768, out_features=50257, bias=False)\n)\n```\n:::\n:::\n\n\nThis only saves the model weights. We can also save optimizer states.\n\n::: {#8a536a33 .cell execution_count=23}\n``` {.python .cell-code}\ntorch.save({\n    \"model_state_dict\": model.state_dict(),\n    \"optimizer_state_dict\": optimizer.state_dict()\n},\n\"model_and_optimizer.pth\"\n)\n\ncheckpoint = torch.load(\"model_and_optimizer.pth\", map_location=device)\nmodel = GPTModel(GPT_CONFIG_124M)\nmodel.load_state_dict(checkpoint[\"model_state_dict\"])\n\noptimizer = torch.optim.AdamW(model.parameters(), lr = 5e-4, weight_decay=0.1)\noptimizer.load_state_dict(checkpoint[\"optimizer_state_dict\"])\n\nmodel.train()\n```\n\n::: {.cell-output .cell-output-display execution_count=25}\n```\nGPTModel(\n  (tok_emb): Embedding(50257, 768)\n  (pos_emb): Embedding(256, 768)\n  (drop_emb): Dropout(p=0.1, inplace=False)\n  (trf_blocks): Sequential(\n    (0): TransformerBlock(\n      (att): MultiHeadAttention(\n        (W_query): Linear(in_features=768, out_features=768, bias=False)\n        (W_key): Linear(in_features=768, out_features=768, bias=False)\n        (W_value): Linear(in_features=768, out_features=768, bias=False)\n        (out_proj): Linear(in_features=768, out_features=768, bias=True)\n        (dropout): Dropout(p=0.1, inplace=False)\n      )\n      (ff): FeedForward(\n        (layers): Sequential(\n          (0): Linear(in_features=768, out_features=3072, bias=True)\n          (1): GELU()\n          (2): Linear(in_features=3072, out_features=768, bias=True)\n        )\n      )\n      (norm1): LayerNorm()\n      (norm2): LayerNorm()\n      (drop_shortcut): Dropout(p=0.1, inplace=False)\n    )\n    (1): TransformerBlock(\n      (att): MultiHeadAttention(\n        (W_query): Linear(in_features=768, out_features=768, bias=False)\n        (W_key): Linear(in_features=768, out_features=768, bias=False)\n        (W_value): Linear(in_features=768, out_features=768, bias=False)\n        (out_proj): Linear(in_features=768, out_features=768, bias=True)\n        (dropout): Dropout(p=0.1, inplace=False)\n      )\n      (ff): FeedForward(\n        (layers): Sequential(\n          (0): Linear(in_features=768, out_features=3072, bias=True)\n          (1): GELU()\n          (2): Linear(in_features=3072, out_features=768, bias=True)\n        )\n      )\n      (norm1): LayerNorm()\n      (norm2): LayerNorm()\n      (drop_shortcut): Dropout(p=0.1, inplace=False)\n    )\n    (2): TransformerBlock(\n      (att): MultiHeadAttention(\n        (W_query): Linear(in_features=768, out_features=768, bias=False)\n        (W_key): Linear(in_features=768, out_features=768, bias=False)\n        (W_value): Linear(in_features=768, out_features=768, bias=False)\n        (out_proj): Linear(in_features=768, out_features=768, bias=True)\n        (dropout): Dropout(p=0.1, inplace=False)\n      )\n      (ff): FeedForward(\n        (layers): Sequential(\n          (0): Linear(in_features=768, out_features=3072, bias=True)\n          (1): GELU()\n          (2): Linear(in_features=3072, out_features=768, bias=True)\n        )\n      )\n      (norm1): LayerNorm()\n      (norm2): LayerNorm()\n      (drop_shortcut): Dropout(p=0.1, inplace=False)\n    )\n    (3): TransformerBlock(\n      (att): MultiHeadAttention(\n        (W_query): Linear(in_features=768, out_features=768, bias=False)\n        (W_key): Linear(in_features=768, out_features=768, bias=False)\n        (W_value): Linear(in_features=768, out_features=768, bias=False)\n        (out_proj): Linear(in_features=768, out_features=768, bias=True)\n        (dropout): Dropout(p=0.1, inplace=False)\n      )\n      (ff): FeedForward(\n        (layers): Sequential(\n          (0): Linear(in_features=768, out_features=3072, bias=True)\n          (1): GELU()\n          (2): Linear(in_features=3072, out_features=768, bias=True)\n        )\n      )\n      (norm1): LayerNorm()\n      (norm2): LayerNorm()\n      (drop_shortcut): Dropout(p=0.1, inplace=False)\n    )\n    (4): TransformerBlock(\n      (att): MultiHeadAttention(\n        (W_query): Linear(in_features=768, out_features=768, bias=False)\n        (W_key): Linear(in_features=768, out_features=768, bias=False)\n        (W_value): Linear(in_features=768, out_features=768, bias=False)\n        (out_proj): Linear(in_features=768, out_features=768, bias=True)\n        (dropout): Dropout(p=0.1, inplace=False)\n      )\n      (ff): FeedForward(\n        (layers): Sequential(\n          (0): Linear(in_features=768, out_features=3072, bias=True)\n          (1): GELU()\n          (2): Linear(in_features=3072, out_features=768, bias=True)\n        )\n      )\n      (norm1): LayerNorm()\n      (norm2): LayerNorm()\n      (drop_shortcut): Dropout(p=0.1, inplace=False)\n    )\n    (5): TransformerBlock(\n      (att): MultiHeadAttention(\n        (W_query): Linear(in_features=768, out_features=768, bias=False)\n        (W_key): Linear(in_features=768, out_features=768, bias=False)\n        (W_value): Linear(in_features=768, out_features=768, bias=False)\n        (out_proj): Linear(in_features=768, out_features=768, bias=True)\n        (dropout): Dropout(p=0.1, inplace=False)\n      )\n      (ff): FeedForward(\n        (layers): Sequential(\n          (0): Linear(in_features=768, out_features=3072, bias=True)\n          (1): GELU()\n          (2): Linear(in_features=3072, out_features=768, bias=True)\n        )\n      )\n      (norm1): LayerNorm()\n      (norm2): LayerNorm()\n      (drop_shortcut): Dropout(p=0.1, inplace=False)\n    )\n    (6): TransformerBlock(\n      (att): MultiHeadAttention(\n        (W_query): Linear(in_features=768, out_features=768, bias=False)\n        (W_key): Linear(in_features=768, out_features=768, bias=False)\n        (W_value): Linear(in_features=768, out_features=768, bias=False)\n        (out_proj): Linear(in_features=768, out_features=768, bias=True)\n        (dropout): Dropout(p=0.1, inplace=False)\n      )\n      (ff): FeedForward(\n        (layers): Sequential(\n          (0): Linear(in_features=768, out_features=3072, bias=True)\n          (1): GELU()\n          (2): Linear(in_features=3072, out_features=768, bias=True)\n        )\n      )\n      (norm1): LayerNorm()\n      (norm2): LayerNorm()\n      (drop_shortcut): Dropout(p=0.1, inplace=False)\n    )\n    (7): TransformerBlock(\n      (att): MultiHeadAttention(\n        (W_query): Linear(in_features=768, out_features=768, bias=False)\n        (W_key): Linear(in_features=768, out_features=768, bias=False)\n        (W_value): Linear(in_features=768, out_features=768, bias=False)\n        (out_proj): Linear(in_features=768, out_features=768, bias=True)\n        (dropout): Dropout(p=0.1, inplace=False)\n      )\n      (ff): FeedForward(\n        (layers): Sequential(\n          (0): Linear(in_features=768, out_features=3072, bias=True)\n          (1): GELU()\n          (2): Linear(in_features=3072, out_features=768, bias=True)\n        )\n      )\n      (norm1): LayerNorm()\n      (norm2): LayerNorm()\n      (drop_shortcut): Dropout(p=0.1, inplace=False)\n    )\n    (8): TransformerBlock(\n      (att): MultiHeadAttention(\n        (W_query): Linear(in_features=768, out_features=768, bias=False)\n        (W_key): Linear(in_features=768, out_features=768, bias=False)\n        (W_value): Linear(in_features=768, out_features=768, bias=False)\n        (out_proj): Linear(in_features=768, out_features=768, bias=True)\n        (dropout): Dropout(p=0.1, inplace=False)\n      )\n      (ff): FeedForward(\n        (layers): Sequential(\n          (0): Linear(in_features=768, out_features=3072, bias=True)\n          (1): GELU()\n          (2): Linear(in_features=3072, out_features=768, bias=True)\n        )\n      )\n      (norm1): LayerNorm()\n      (norm2): LayerNorm()\n      (drop_shortcut): Dropout(p=0.1, inplace=False)\n    )\n    (9): TransformerBlock(\n      (att): MultiHeadAttention(\n        (W_query): Linear(in_features=768, out_features=768, bias=False)\n        (W_key): Linear(in_features=768, out_features=768, bias=False)\n        (W_value): Linear(in_features=768, out_features=768, bias=False)\n        (out_proj): Linear(in_features=768, out_features=768, bias=True)\n        (dropout): Dropout(p=0.1, inplace=False)\n      )\n      (ff): FeedForward(\n        (layers): Sequential(\n          (0): Linear(in_features=768, out_features=3072, bias=True)\n          (1): GELU()\n          (2): Linear(in_features=3072, out_features=768, bias=True)\n        )\n      )\n      (norm1): LayerNorm()\n      (norm2): LayerNorm()\n      (drop_shortcut): Dropout(p=0.1, inplace=False)\n    )\n    (10): TransformerBlock(\n      (att): MultiHeadAttention(\n        (W_query): Linear(in_features=768, out_features=768, bias=False)\n        (W_key): Linear(in_features=768, out_features=768, bias=False)\n        (W_value): Linear(in_features=768, out_features=768, bias=False)\n        (out_proj): Linear(in_features=768, out_features=768, bias=True)\n        (dropout): Dropout(p=0.1, inplace=False)\n      )\n      (ff): FeedForward(\n        (layers): Sequential(\n          (0): Linear(in_features=768, out_features=3072, bias=True)\n          (1): GELU()\n          (2): Linear(in_features=3072, out_features=768, bias=True)\n        )\n      )\n      (norm1): LayerNorm()\n      (norm2): LayerNorm()\n      (drop_shortcut): Dropout(p=0.1, inplace=False)\n    )\n    (11): TransformerBlock(\n      (att): MultiHeadAttention(\n        (W_query): Linear(in_features=768, out_features=768, bias=False)\n        (W_key): Linear(in_features=768, out_features=768, bias=False)\n        (W_value): Linear(in_features=768, out_features=768, bias=False)\n        (out_proj): Linear(in_features=768, out_features=768, bias=True)\n        (dropout): Dropout(p=0.1, inplace=False)\n      )\n      (ff): FeedForward(\n        (layers): Sequential(\n          (0): Linear(in_features=768, out_features=3072, bias=True)\n          (1): GELU()\n          (2): Linear(in_features=3072, out_features=768, bias=True)\n        )\n      )\n      (norm1): LayerNorm()\n      (norm2): LayerNorm()\n      (drop_shortcut): Dropout(p=0.1, inplace=False)\n    )\n  )\n  (final_norm): LayerNorm()\n  (out_head): Linear(in_features=768, out_features=50257, bias=False)\n)\n```\n:::\n:::\n\n\nThis saves and loads our optimizers and model weights.\n\nI really like the \"Backward Walk\" concept—it feels very much like an engineer taking a machine apart to see exactly how the gears mesh. However, you're right; the draft is a bit heavy on the \"meta\" commentary about your process.\n\nTo keep it snappy and maintain you
…
